FLIPKART-GRID-main/src/models/ocr_unet.pth (torch, 1916 bytes, 2 tensors)

layer.weight f4 [3, 3, 3, 3]
0	0x3e3b6a22	0.18302205
1	0x3d8e9cf9	0.06963534
2	0x3e082fa8	0.1329943
3	0xbe1f1ddc	-0.15538734
4	0x3e056544	0.13026911
5	0xbde4526d	-0.11148534
6	0x3db12758	0.08650082
7	0xbe18622e	-0.14881203
8	0xbd2198f4	-0.039452508
9	0xbcf0f965	-0.029415796
10	0xbc2b28d8	-0.01044675
11	0x3d737360	0.059436202
12	0xbce2612b	-0.027634224
13	0xbdc577d7	-0.09641998
14	0x3d92147b	0.071328126
15	0xbdcd1f8c	-0.10015783
16	0xbdac5ca5	-0.08416108
17	0x3e018e24	0.12651879
18	0x3e11163c	0.14168638
19	0x3d3e13f9	0.046405766
20	0x3e023584	0.12715727
21	0xbdd965fb	-0.10615154
22	0x3c1a3ac6	0.009413427
23	0x3d4c2320	0.049838185
24	0xbd75c901	-0.060006145
25	0x3e07bcf6	0.13255677
26	0xbd31109d	-0.043228734
27	0x3e1cfe32	0.15331343
28	0xbe351aa9	-0.17685951
29	0xbe2f5233	-0.171212
30	0xbc350a06	-0.011049753
31	0x3e168367	0.14698564
32	0xbcbd2144	-0.023087151
33	0x3da8cd27	0.08242255
34	0xbe432657	-0.19057594
35	0xbd29dad3	-0.041468453
36	0x3d5e6d0d	0.054303218
37	0x3c309c7e	0.010779498
38	0xbd25f1f6	-0.040513955
39	0xbe2e80f4	-0.17041379
40	0x3e17242a	0.14759889
41	0x3e0917a2	0.13387921
42	0xbd3d5426	-0.04622283
43	0x3cf09d68	0.029371932
44	0xbcc7869d	-0.02435618
45	0x3bbeb396	0.005819748
46	0x3cbd070c	0.02307465
47	0x3d81e13b	0.063417874
48	0xbe12c9ee	-0.14334843
49	0x3d172956	0.036904655
50	0xbbd1827e	-0.0063937297
51	0xbd35b1e3	-0.0443591
52	0xbd4742a1	-0.048647527
53	0x3e21421c	0.15747875
54	0x3d32e432	0.043674655
55	0xbe43e1c5	-0.19129093
56	0xbe341216	-0.17585024
57	0xbdf177e8	-0.117904484
58	0xba040e8e	-0.0005037569
59	0xbe2d1ead	-0.16906233
60	0x3df98eb5	0.12185422
61	0xbd183a91	-0.03716523
62	0xbe0b1575	-0.13582404
63	0x3e1a518e	0.15070173
64	0x3db653d3	0.08902707
65	0x3d4ae37d	0.049533356
66	0x3deacd80	0.11464977
67	0xbe1e162b	-0.15438144
68	0xbc2f6f99	-0.010707759
69	0x3d084073	0.03326459
70	0xbdaa8b4d	-0.08327351
71	0xb9fd71db	-0.0004834075
72	0x3e10a865	0.14126737
73	0x3e1c97ed	0.1529233
74	0x3afdf957	0.0019376677
75	0x3e07dae0	0.13267088
76	0x3d626f5d	0.055281986
77	0x3e2cd70f	0.16878913
78	0xbcfe74fd	-0.031061644
79	0xbde0d76b	-0.10978588
80	0xbd923ce5	-0.07140521

layer.bias f4 [3]
0	0xbe1c7e4b	-0.15282552
1	0xbe3826be	-0.17983529
2	0xbe446b3a	-0.19181529
